Found 118 images belonging to 1 classes.
Found 729 images belonging to 3 classes.
_________________________________________________________________
Layer (type)                 Output Shape              Param #   
=================================================================
conv2d_1 (Conv2D)            (None, 64, 64, 32)        896       
_________________________________________________________________
leaky_re_lu_1 (LeakyReLU)    (None, 64, 64, 32)        0         
_________________________________________________________________
max_pooling2d_1 (MaxPooling2 (None, 32, 32, 32)        0         
_________________________________________________________________
dropout_1 (Dropout)          (None, 32, 32, 32)        0         
_________________________________________________________________
conv2d_2 (Conv2D)            (None, 32, 32, 32)        9248      
_________________________________________________________________
leaky_re_lu_2 (LeakyReLU)    (None, 32, 32, 32)        0         
_________________________________________________________________
max_pooling2d_2 (MaxPooling2 (None, 16, 16, 32)        0         
_________________________________________________________________
dropout_2 (Dropout)          (None, 16, 16, 32)        0         
_________________________________________________________________
conv2d_3 (Conv2D)            (None, 16, 16, 64)        18496     
_________________________________________________________________
leaky_re_lu_3 (LeakyReLU)    (None, 16, 16, 64)        0         
_________________________________________________________________
max_pooling2d_3 (MaxPooling2 (None, 8, 8, 64)          0         
_________________________________________________________________
dropout_3 (Dropout)          (None, 8, 8, 64)          0         
_________________________________________________________________
flatten_1 (Flatten)          (None, 4096)              0         
_________________________________________________________________
dense_1 (Dense)              (None, 1024)              4195328   
_________________________________________________________________
reshape_1 (Reshape)          (None, 4, 4, 64)          0         
_________________________________________________________________
up_sampling2d_1 (UpSampling2 (None, 8, 8, 64)          0         
_________________________________________________________________
conv2d_transpose_1 (Conv2DTr (None, 8, 8, 512)         2097664   
_________________________________________________________________
batch_normalization_1 (Batch (None, 8, 8, 512)         2048      
_________________________________________________________________
up_sampling2d_2 (UpSampling2 (None, 16, 16, 512)       0         
_________________________________________________________________
conv2d_transpose_2 (Conv2DTr (None, 16, 16, 256)       3277056   
_________________________________________________________________
batch_normalization_2 (Batch (None, 16, 16, 256)       1024      
_________________________________________________________________
up_sampling2d_3 (UpSampling2 (None, 32, 32, 256)       0         
_________________________________________________________________
conv2d_transpose_3 (Conv2DTr (None, 32, 32, 128)       819328    
_________________________________________________________________
batch_normalization_3 (Batch (None, 32, 32, 128)       512       
_________________________________________________________________
up_sampling2d_4 (UpSampling2 (None, 64, 64, 128)       0         
_________________________________________________________________
conv2d_transpose_4 (Conv2DTr (None, 64, 64, 64)        204864    
_________________________________________________________________
batch_normalization_4 (Batch (None, 64, 64, 64)        256       
_________________________________________________________________
conv2d_transpose_5 (Conv2DTr (None, 64, 64, 3)         4803      
=================================================================
Total params: 10,631,523
Trainable params: 10,629,603
Non-trainable params: 1,920
_________________________________________________________________
2017-09-10 22:33:55.746745: Step: 0, Generator: 0.435772
2017-09-10 22:33:59.593847: Step: 1, Generator: 0.339861
2017-09-10 22:34:03.429578: Step: 2, Generator: 0.312024
2017-09-10 22:34:07.543705: Step: 3, Generator: 0.268250
…
